smartcropperlib/src/main/assets/models/hed_lite_model_quantize.tflite (tflite, 346448 bytes, 98 tensors)

hed/dsn1/conv2d/kernel f4 [1, 1, 1, 6]
00000000: 362d 383f 97d0 84bf bd10 8f3f d6c3 4fbf
00000010: 991f 1a3e 8be2 3cbf
0.71943986 -1.0376157 1.1176983 -0.81158197 0.15051116 -0.7378318

hed/dsn2/conv2d/kernel f4 [1, 1, 1, 6]
00000000: 9a62 7a3e c6d0 91be 2f95 8b3e 565b 04be
00000010: 7096 cbbd 9831 db3d
0.24451676 -0.28479594 0.27262256 -0.12925467 -0.09940803 0.10702819

hed/dsn2/conv2d_transpose/kernel/read_transposed f4 [1, 4, 4, 1]
00000000: e45d ef3d b1f6 8f3e d2ee ad3e 33bc 753e
00000010: f665 7c3e 6d81 093f 7207 483f 35c8 123f
00000020: 2f01 113e c5e3 0c3f c7e4 613f a7d1 183f
00000030: ea5a 11bd 2afd 8c3e 577b e23e 6055 823e
0.1168783 0.28117898 0.33971268 0.23997574 0.2464827 0.53713113 0.7813636 0.5733674
0.14160608 0.5503505 0.8823971 0.59694904 -0.035487093 0.275369 0.44234726 0.2545576

hed/dsn3/conv2d/kernel f4 [1, 1, 1, 12]
00000000: 22ed 093d ba24 48be 5653 cb3e 753e 49be
00000010: 740c 893e 46fc 90be 35d5 9fbe 5b34 92bd
00000020: 082b 8cbe 2644 713e dbbb ac3b 765f 8dbe
0.033673413 -0.1954526 0.39712018 -0.19652732 0.26767313 -0.2831747 -0.31217352 -0.07138892
-0.2737658 0.23561153 0.0052714176 -0.27611893

hed/dsn3/conv2d_transpose/kernel/read_transposed f4 [1, 8, 8, 1]
00000000: 50ef 5b3c a45b 463d ec72 ec3d b937 783d
00000010: 01ae 0a3e c36d 973d 9970 433d 6ff7 e53c
00000020: 7b8b a13d 4295 123e ad83 5d3e 1bfe 433e
00000030: 2e3f 833e 3d8d 433e 4855 123e 518d e23d
00000040: 50ce eb3d b33c 503e 0520 923e 340c 9c3e
00000050: ee83 c53e 7871 993e ac32 7c3e 106b 2a3e
00000060: 03fd 0f3e 6595 803e ff97 c03e 4632 df3e
00000070: 75b7 0a3f e6cf e33e 9600 b63e fe2c 713e
00000080: 1552 a63d 37e7 503e d98d a83e 19b7 e13e
00000090: 2ae9 173f f1c8 fa3e ab48 d03e ce35 813e
000000a0: d2aa c33c e04d e63d 78df 743e a41d a93e
000000b0: e8a3 023f d103 d33e 4d36 af3e a44f 4e3e
000000c0: 30ac 77bc d328 6a3d 6bc3 263e bba8 6b3e
000000d0: 16af c93e 301c 9c3e 2314 833e 5fdb 123e
000000e0: 83a0 56bd e9d2 7dbc ee29 693d dc1f 913d
000000f0: 83a8 543e 12ed 033e 60f2 fa3d 18b2 493d
0.013423756 0.04842724 0.11545357 0.060600016 0.1354294 0.07393982 0.047714803 0.028072087
0.07887932 0.1431475 0.21632262 0.19139902 0.2563414 0.19096847 0.14290345 0.1106211
0.1151396 0.20335655 0.28540054 0.3047806 0.38577217 0.29969382 0.24628705 0.16642404
0.1406136 0.2511398 0.37615964 0.43593043 0.54186183 0.4449455 0.35547322 0.2355232
0.08121125 0.20400701 0.3292072 0.44085005 0.59340155 0.4898143 0.4068044 0.25236362
0.023885164 0.11245322 0.23913372 0.33030427 0.5103135 0.4121385 0.34221116 0.20147568
-0.015116736 0.05716784 0.16285484 0.23013584 0.39391392 0.30490255 0.256013 0.14341496
-0.05239917 -0.015492179 0.056924753 0.07086155 0.20767407 0.12883404 0.122532606 0.04924211

hed/dsn4/conv2d/kernel f4 [1, 1, 1, 24]
00000000: 34bd 593d c46e f1bd 113e 07bd f3ee e43b
00000010: 2a2a 1fbe caf5 29be cb1d 51bd 204a b43d
00000020: cbda 763b 5cc0 153e 6cac c5bd ee2d 07be
00000030: f715 11be d9ec cdbd 0fb6 313d a5e0 c23d
00000040: 483d 24be 1847 4b3d 14f6 bdbd 3983 e2bd
00000050: 6a57 d53d 1541 113e fa8c fb3c ecbc 853d
0.053158954 -0.11788705 -0.033018176 0.006986493 -0.15543428 -0.16597667 -0.051053803 0.08803201
0.0037667032 0.1462416 -0.096520275 -0.13201115 -0.14168535 -0.10054941 0.043386515 0.09515504
-0.16039002 0.049628347 -0.09275451 -0.11060185 0.104170635 0.14184983 0.030706871 0.065301746

hed/dsn4/conv2d_transpose/kernel/read_transposed f4 [1, 16, 16, 1]
00000000: ec40 853b 169e 633c ff6b 1e3d 3bac 5a3d
00000010: 8114 0f3e 7a2f f73d 1f06 013e 1fcc c03d
00000020: 977c ef3d 765c c33d c543 e63d b52d d43d
00000030: d472 003e 563c 7b3d 2e56 253d 3ae5 823b
00000040: 1079 3e3d d5cc 8b3d 1ef2 ca3d f23a fd3d
00000050: a5a3 5d3e 5174 4d3e aa09 513e 6ebc 403e
00000060: 93dc 313e f7fd 183e ad1e 213e 0fbd 173e
00000070: d196 223e 3ea0 c83d ea5c 873d f63b d63c
00000080: 098d 873d fdbc d43d 26db 083e 514a 313e
00000090: 7bbb 863e 30ec 883e aef8 8c3e 8252 873e
000000a0: ce30 853e f432 6d3e 8f94 673e a8b8 4f3e
000000b0: aa8e 633e c84d 123e c802 c93d 404a 3a3d
000000c0: ba2c f13d cac7 253e 3f43 443e e902 773e
000000d0: d7d1 a93e 6d3f af3e 8586 b23e a57c b23e
000000e0: a8c8 b23e 7665 a33e e3e9 983e 348e 883e
000000f0: 3803 893e adbc 433e b9bf 0e3e b3fa b33d
00000100: 8185 0b3e 9ae1 413e 1f5e 6a3e 2bb0 8d3e
00000110: 1b3d bb3e e6c1 c03e 18d8 c63e 5327 cb3e
00000120: b744 d43e d355 c03e f497 b23e 3e9c a23e
00000130: 2864 9d3e f3b3 783e c11d 423e d5e2 073e
00000140: 4ed4 f33d e8dc 2f3e 09af 633e e862 903e
00000150: 1528 be3e 3dc2 c53e 68e7 cf3e 4774 d93e
00000160: d8ee e13e 3e50 ce3e 1eae bc3e bf39 aa3e
00000170: 36c6 a83e 2efd 843e 9059 4c3e 5ff2 093e
00000180: 7d4c e93d 1297 433e 5417 773e 9669 a13e
00000190: 71bb d13e 1531 e13e 3366 ef3e a48f ff3e
000001a0: 5a05 fb3e 62c9 e43e c903 d13e e749 c23e
000001b0: 6e23 b63e c968 8f3e 4af3 4a3e dd62 fe3d
000001c0: 40ef 0a3e 8b25 603e f0ff 893e b097 b93e
000001d0: a6f9 f13e 306d 033f 0317 093f 5834 133f
000001e0: 07ea 123f ecea 073f aca4 f63e 13f0 e33e
000001f0: ba93 d23e f1df a63e 01cb 6c3e 0261 213e
00000200: 1346 d53d ca54 383e 17c6 803e 136d b33e
00000210: 8758 ed3e 7834 fb3e 83a0 053f ecb8 133f
00000220: 5810 1f3f 9f9b 143f c69e 033f e11d f13e
00000230: 4a73 e13e 8b7e b93e 0073 843e ec31 283e
00000240: 557d 823d ab5f 003e c3d5 453e f657 8e3e
00000250: 71bb c23e 2e43 cf3e bae4 e43e 6490 fa3e
00000260: 11ed 103f 6d61 083f 65ef f33e 1808 e13e
00000270: 74ee d73e a5aa b33e 1ca1 7f3e ef8c 2e3e
00000280: f096 763d 9027 003e 3c4b 353e 4c84 833e
00000290: 290f b43e ad52 ba3e b9a9 cc3e 6818 e13e
000002a0: 3170 003f 3c20 f13e f8d5 d93e 7078 cc3e
000002b0: 63eb bd3e cfbc a23e 2876 6c3e c7c9 243e
000002c0: 5b82 9c3d db8c 113e d9b2 3b3e 3a1c 833e
000002d0: 724a a73e 8ff1 af3e dcf5 ba3e 7e3d d13e
000002e0: e05f ec3e 00d3 dd3e 2bed c33e 8da0 b83e
000002f0: 3ff3 ae3e 8ae0 983e 353f 613e d097 2c3e
00000300: 43d6 913d 5991 013e 3361 253e 9556 703e
00000310: e277 9a3e 4684 a43e cd50 b13e fe01 c73e
00000320: 758c d73e 8449 cd3e 2a7b b63e 3c82 aa3e
00000330: 1589 a63e cafd 8c3e 19bc 493e 113d 123e
00000340: fedf 0b3d 9f74 983d 0947 d93d abbc 213e
00000350: 1539 7c3e fd82 7f3e 6496 8c3e 18d0 973e
00000360: 1f12 ad3e 05a5 a23e c18d 943e 41f6 8f3e
00000370: c4b3 8c3e 4617 713e 31ec 233e 9ad1 e23d
00000380: be97 91bb 520f 663c fc2d 413d 83ae c53d
00000390: a9bc 3b3e d0c6 2d3e 4db0 413e 5926 463e
000003a0: a8f4 813e 7477 703e 824c 673e 6142 563e
000003b0: d724 673e 697e 303e f412 ff3d c9c8 9a3d
000003c0: f3c4 2cbd 59dd 29bd 89a8 e9ba db10 b53c
000003d0: 2356 dd3d 3875 9f3d 690a c43d 9dff ab3d
000003e0: 7740 163e 29aa 003e 784e ff3d 1dd5 e93d
000003f0: 09e5 123e 876f c93d 5524 843d b51b 693c
0.004066577 0.013892671 0.03867721 0.053386908 0.13972665 0.12069602 0.12599991 0.09413933
0.116936855 0.0953912 0.11243395 0.103602804 0.12543803 0.061336838 0.04036539 0.003994611
0.046502173 0.06826178 0.099094614 0.123647586 0.21644457 0.20063902 0.20413843 0.1882188
0.17369299 0.1494063 0.15734358 0.14818214 0.15877844 0.09796189 0.06609519 0.026151638
0.06618697 0.10387609 0.13364848 0.17313506 0.2631491 0.26742697 0.27533478 0.26430136
0.26013798 0.23163968 0.22615264 0.20285285 0.22222391 0.14287484 0.098149836 0.045480967
0.11776109 0.16189495 0.19166277 0.24122204 0.33167908 0.34228078 0.34868255 0.3486072
0.34918714 0.31913346 0.2986594 0.26670992 0.26760268 0.19114943 0.13940324 0.087880515
0.13625146 0.18933716 0.22887467 0.27673468 0.36570057 0.37647933 0.3883674 0.3967844
0.41458675 0.3756548 0.34881556 0.31759828 0.30740476 0.24287395 0.18956663 0.13270123
0.11905728 0.17174113 0.2223474 0.2820046 0.37139955 0.38624755 0.40606236 0.42471525
0.44127536 0.40295595 0.3685159 0.33247182 0.32963723 0.2597441 0.1995604 0.13471363
0.11391542 0.19100598 0.24129993 0.31525868 0.4096332 0.4398276 0.4675766 0.49914277
0.4902752 0.44684893 0.408232 0.37947008 0.35573906 0.28009632 0.1981937 0.124212004
0.13567829 0.21889322 0.26953077 0.3624854 0.4726078 0.5133848 0.5355074 0.57501745
0.5738835 0.5309284 0.4817251 0.445191 0.4112833 0.3259273 0.23124315 0.15759662
0.10413756 0.18001094 0.2515113 0.35044155 0.46356604 0.49063468 0.52198046 0.57704043
0.62134314 0.5804996 0.51414144 0.47093108 0.4403327 0.36229357 0.25868988 0.16425294
0.063715614 0.12536494 0.19319825 0.27801484 0.3803363 0.40480942 0.44705755 0.48938286
0.56611735 0.5327366 0.4764358 0.43951488 0.42174113 0.3509113 0.24963802 0.1704595
0.06020254 0.12515092 0.17704481 0.25686872 0.35167816 0.36391202 0.39973238 0.43963933
0.5017119 0.47094905 0.42546058 0.39935637 0.37093648 0.31784675 0.23091948 0.16092597
0.07642051 0.14213888 0.18329944 0.25607473 0.32673985 0.34363982 0.365157 0.40867227
0.46166897 0.43325043 0.38266882 0.3605999 0.34169957 0.2985881 0.21996768 0.16854787
0.07120945 0.12653102 0.1615036 0.23470528 0.30169588 0.32132167 0.3463196 0.38868707
0.42099348 0.4009515 0.35640842 0.33302486 0.3252646 0.27537376 0.1970066 0.14281107
0.034149162 0.07444119 0.10609252 0.15794627 0.2463115 0.24952312 0.2745849 0.2965095
0.33802888 0.31766525 0.290144 0.28117564 0.274809 0.23544034 0.16008069 0.110751346
-0.004443138 0.014041739 0.047162995 0.09652426 0.18333687 0.16970372 0.1891491 0.19350566
0.2538197 0.23483068 0.22587779 0.20923759 0.22572647 0.17235722 0.12454787 0.07557828
-0.042180013 -0.04147086 -0.0017826717 0.022102764 0.10807445 0.077860296 0.09572298 0.08398364
0.14673029 0.12564911 0.124661386 0.11417601 0.14345182 0.09835725 0.06452242 0.014227797

hed/dsn5/conv2d/kernel f4 [1, 1, 1, 64]
00000000: fb6e 073c a132 9fbd b2fc 523c 69a5 383d
00000010: 318a 25bd 98d9 5dbd 60c1 38bd aa43 0fbd
00000020: f90f 8f3c 3177 ec3b 5511 4a3d e141 103d
00000030: 507e 193d 5ce0 e63c d573 a13c 8e4f 69bc
00000040: 1fd6 843d d2c9 eebc e51c b03d 2b1c 63bb
00000050: f5d1 3b3c d4df 233c df48 99bd 07e9 84bd
00000060: 2469 58bd 21e7 0a3d 7b45 a1bd 32e3 3cbd
00000070: 2510 57bd af5b 00bc 5a9c 2abc 106c f23c
00000080: a10a adbd aea7 4dbd d201 963d 48e2 92bd
00000090: 44d5 9b3d 4b97 7b3c d3d2 143d 2afd 92bd
000000a0: 6af3 b63d 20bd 6abd f771 71bd aa37 4bbd
000000b0: 493c 83bc 7874 30bd 2ff7 8f3d 65cc 603d
000000c0: 4ecd 68bc e294 6d3d 828c 09bd b17d 543d
000000d0: 32ce 58bd bbd9 8dbd 1041 063d b6ad ae3d
000000e0: 644f aebb 4d4d 863d 7561 8b3d 4aad a4bd
000000f0: de1d 583d 5aae f6bc 22b6 d6bc fc1b 853c
0.008266206 -0.077733286 0.01287763 0.045079622 -0.040414993 -0.05416259 -0.04510629 -0.03497664
0.017463671 0.007216357 0.049332935 0.035219077 0.037473977 0.028183155 0.019708553 -0.014240159
0.06486153 -0.02914897 0.08599261 -0.003465424 0.011463632 0.010002095 -0.07484602 -0.06489759
-0.052834645 0.033911828 -0.078745805 -0.046115108 -0.05250563 -0.007834359 -0.010413254 0.029592544
-0.08449293 -0.05020874 0.07324566 -0.07172066 0.076090366 0.015355895 0.03633387 -0.071771935
0.08933146 -0.05730927 -0.058946576 -0.049613632 -0.016019957 -0.043079823 0.070295684 0.054882426
-0.014209105 0.058003314 -0.033581264 0.05187768 -0.05293102 -0.069262944 0.032776892 0.085292265
-0.0053195227 0.06557713 0.06805698 -0.08040865 0.05276286 -0.030112434 -0.026209895 0.016248696

hed/dsn5/conv2d_transpose/kernel/read_transposed f4 [1, 32, 32, 1]
00000000: 80b5 a8bc ecfd 00bd 9c06 36bd 19b7 6bbd
00000010: c3d3 82bd 3fb0 8cbd 1220 bfbd fe16 e7bd
00000020: 43d1 19be 2b2f 16be b40c 29be e383 1ebe
00000030: ce0d 25be 210a 14be 74d9 17be 8289 10be
00000040: 0fcf 3fbe a19f 26be 2adf 28be 4dea 13be
00000050: 61bd 1ebe a27a 14be 8c14 14be 7734 03be
00000060: a2cd 13be e390 d4bd 1c69 a2bd eb53 5fbd
00000070: 12bc 74bd c47e 46bd 4b1e 22bd 119c 06bd
00000080: 48fd 14bd adda 42bd 48e0 88bd f247 a1bd
00000090: d182 b4bd 8d2e cabd 96a3 06be 09e1 17be
000000a0: d003 47be be0c 45be 0ab1 58be d499 4cbe
000000b0: a27b 58be 2576 46be c872 4ebe abf7 4abe
000000c0: d0a2 77be a5e5 5fbe 296c 5cbe d1d8 49be
000000d0: 86ee 4cbe 0a8e 3abe 7b62 32be 0ff4 27be
000000e0: 08cf 2fbe 5ba1 0abe fa6e debd ecda acbd
000000f0: dfc9 97bd 54e4 7bbd 82ec 43bd c451 21bd
00000100: 1d66 2cbd dad7 5ebd bdfe 9dbd 7e9c b6bd
00000110: 91b6 d2bd aa01 ecbd 28db 1cbe 7200 39be
00000120: b3a8 67be c4a3 66be 21c1 7abe b533 71be
00000130: 725e 7fbe 8e5c 6ebe 30f6 7fbe d76c 7abe
00000140: 0863 95be 4f57 87be 845f 82be cb3b 6fbe
00000150: 139b 7cbe a40b 67be b150 58be 49af 41be
00000160: 3144 59be 7564 2bbe 3935 0abe d2f2 d4bd
00000170: e18b c7bd 350b a8bd 3474 71bd d140 3cbd
00000180: 9be7 58bd 22b0 89bd a346 babd 5dd3 e7bd
00000190: c80c 02be 453b 0fbe 0c25 35be 7de2 55be
000001a0: e9e9 83be 8419 85be eac3 8ebe 7f3a 8ebe
000001b0: fa36 96be 5ffb 90be 25bb 97be c76c 93be
000001c0: 4701 a8be bd93 99be 1830 94be 2d4b 87be
000001d0: ef70 92be 2337 86be 8713 7fbe 131c 63be
000001e0: b06f 74be a96b 43be bcb8 1fbe 0e11 e9bd
000001f0: eaa7 e6bd cd33 b9bd 6dd6 89bd 1b98 50bd
00000200: 0d04 76bd 973e a5bd 2f9c dbbd 71da fdbd
00000210: 6f25 1dbe cc0c 2fbe d363 54be ab1c 6ebe
00000220: dcf8 87be 0f81 8cbe 34e0 9abe 1dac 9abe
00000230: 7886 a8be 1a9f 9fbe 9762 a2be 6c8a 9fbe
00000240: 73d1 adbe 0b34 a4be 1989 9ebe 879d 9ebe
00000250: 1cf4 9dbe feab 93be 4ac5 83be b196 76be
00000260: 7099 7abe 0007 55be 4cd9 28be bbb6 15be
00000270: a8dd f9bd 34a2 d5bd 2667 9ebd 4248 84bd
00000280: a978 a6bd 3c35 d2bd 03b0 0abe da04 1abe
00000290: 9990 30be 7b55 48be 325a 6cbe 1bd9 81be
000002a0: b25c 93be e6dc 9dbe f337 aebe 4dbe afbe
000002b0: 6bd7 b6be fe1b b1be 220f bbbe ccd9 b9be
000002c0: 9da9 c4be 2036 babe 95ae b5be 36dd aebe
000002d0: 2459 b0be b71a a1be 423a 95be 4d55 89be
000002e0: 9ca1 8abe 6c37 65be b7f7 3ebe 6a17 26be
000002f0: dd07 16be dc5e febd f636 c2bd cc9b 9fbd
00000300: f2db c1bd 6172 01be db7d 22be 0225 3fbe
00000310: 4f79 4ebe f563 63be 024f 87be ed15 96be
00000320: 8bf7 a1be b487 abbe c5ce bebe 26e6 c3be
00000330: 7e13 ccbe eba9 c7be 1bdd d0be 7ba7 d2be
00000340: 1ae8 e0be 10eb d0be 1ec6 cabe 80b9 c1be
00000350: c5a6 c3be 2fb8 b5be 7ade a5be 398c 97be
00000360: 55be 9bbe 0c6c 82be baaa 5cbe 5ecc 41be
00000370: 0407 31be 08c9 1abe ebf9 ebbd 7da0 c6bd
00000380: dd86 0cbe 6681 33be e096 51be baf7 77be
00000390: 8983 7dbe a945 8dbe 5ae8 9dbe 5319 b1be
000003a0: b80c b7be cf0a c5be 6272 d7be 56e3 debe
000003b0: 78cc e9be 7df0 e7be b044 f2be 1210 f6be
000003c0: b765 fdbe 9668 efbe e472 e5be b1fc dbbe
000003d0: 8a2f ddbe 687b c9be a32a babe 799e a6be
000003e0: 9261 abbe 9467 90be c9c6 7cbe d0a5 5ebe
000003f0: f974 54be 93d8 3abe 8eb4 11be d97e f8bd
-0.020594358 -0.03149216 -0.044439897 -0.057547662 -0.063880466 -0.06869554 -0.09332289 -0.11283682
-0.15021233 -0.1466643 -0.16508752 -0.15479998 -0.16118547 -0.14456989 -0.14829046 -0.14114955
-0.1873133 -0.16271831 -0.1649138 -0.14444847 -0.1550193 -0.14499906 -0.14460963 -0.12812982
-0.14433911 -0.103791974 -0.07930204 -0.05452339 -0.05974967 -0.048460737 -0.03957967 -0.03286368
-0.03637436 -0.047571827 -0.06683403 -0.078750506 -0.08814014 -0.0987216 -0.1314834 -0.14831938
-0.19435048 -0.19243142 -0.21161285 -0.19980556 -0.21140912 -0.19381006 -0.20160973 -0.1982104
-0.24183202 -0.21864946 -0.21525635 -0.19711615 -0.20012864 -0.18218246 -0.1742038 -0.16401695
-0.1716882 -0.13538115 -0.10861011 -0.084401935 -0.07411551 -0.061497048 -0.047832973 -0.03938462
-0.04208957 -0.05440507 -0.07714603 -0.08916567 -0.10288728 -0.11523755 -0.15317976 -0.18066576
-0.22622947 -0.22523409 -0.24487735 -0.23554881 -0.24938372 -0.23277494 -0.24996257 -0.24455582
-0.29177117 -0.264338 -0.25463498 -0.23362653 -0.24668531 -0.22563034 -0.21124531 -0.18914522
-0.21217419 -0.1673754 -0.13496865 -0.10397877 -0.09743477 -0.082052626 -0.05894871 -0.04596025
-0.05295525 -0.06723048 -0.09095504 -0.11319611 -0.12700188 -0.13987453 -0.17689914 -0.2088718
-0.25764397 -0.2599603 -0.27883846 -0.27779004 -0.2933882 -0.2831678 -0.29634967 -0.28793928
-0.32813475 -0.29995528 -0.28942943 -0.26424542 -0.28601786 -0.2621394 -0.24909793 -0.22178678
-0.2387073 -0.19084038 -0.15597814 -0.11380206 -0.11262496 -0.09043083 -0.067303516 -0.05092631
-0.060062457 -0.08068579 -0.10723149 -0.1239518 -0.15346311 -0.17094725 -0.20741205 -0.23253123
-0.26557052 -0.27442214 -0.30249178 -0.30209437 -0.32915092 -0.31176072 -0.31715843 -0.31160295
-0.3394886 -0.32070956 -0.30963972 -0.3097956 -0.30850303 -0.28842157 -0.25736457 -0.24080922
-0.24472594 -0.20803452 -0.16489142 -0.14620487 -0.12200481 -0.104313284 -0.07734518 -0.064590946
-0.08128483 -0.1026406 -0.13543706 -0.15040913 -0.1724266 -0.19563858 -0.23081282 -0.2536095
-0.28781658 -0.30832595 -0.3402706 -0.34324875 -0.35711226 -0.3459167 -0.36534983 -0.36298978
-0.38410655 -0.3636942 -0.35484758 -0.34153146 -0.3444301 -0.31465694 -0.2914601 -0.26822892
-0.27076423 -0.22384423 -0.18649183 -0.1621987 -0.14651437 -0.12420437 -0.09483139 -0.07793388
-0.09465779 -0.12641288 -0.15868323 -0.18666461 -0.20163463 -0.222061 -0.26427466 -0.29313603
-0.31634173 -0.3350197 -0.37267128 -0.38261527 -0.3985862 -0.38996825 -0.4079369 -0.41143402
-0.4392708 -0.40804338 -0.39604276 -0.37836838 -0.38213173 -0.35492083 -0.323963 -0.2959917
-0.3041865 -0.25473058 -0.21549502 -0.18925616 -0.17287832 -0.1511575 -0.115222774 -0.096985795
-0.13723321 -0.1752983 -0.2046771 -0.24215594 -0.24757208 -0.2759221 -0.30841333 -0.34589633
-0.3575189 -0.3848481 -0.42079455 -0.4353282 -0.4566381 -0.45300665 -0.4731803 -0.48059136
-0.49491665 -0.4675948 -0.44814217 -0.42966226 -0.43200332 -0.39351964 -0.36360654 -0.3254278
-0.33472878 -0.28204024 -0.24685206 -0.2174294 -0.20747747 -0.18246679 -0.14229032 -0.12133569

hed/dsn_fuse/conv2d/kernel f4 [1, 1, 1, 5]
00000000: 7738 05bf d3d8 8cbf 0b64 af3f ba3d b8bf
00000010: b94e ce3f
-0.52039284 -1.100367 1.3702406 -1.4393837 1.6117774

hed/mobilenet_v2/block0_0/conv2d/conv2d/Conv2D_bias f4 [3]
00000000: 5618 c0bf 3067 afbf 0493 1f3f
-1.5007427 -1.3703365 0.62333703

hed/mobilenet_v2/block0_0/conv2d/conv2d/kernel f4 [3, 3, 3, 3]
00000000: 864f f6bd 62ae 263e da86 72bc deae 03bf
00000010: f485 aa3f 9551 083f a0b1 86bf 6479 2b3f
00000020: 0a07 8e3f 6f19 f33c 943e 4b3f 0390 01bf
00000030: a13a 1bbd f820 0c3f 3219 713f cb15 6f3f
00000040: 4ab2 133e 98d9 143f b18f babf f4c3 0fbf
00000050: b3d0 31bf 8fc1 82bf 827c 593f 561c 7bbd
00000060: f553 e33e a05b e9be 2937 8b3e 6909 8cbf
00000070: 9ae8 9e3f 45a3 03bd 3032 893f 5eaa 04be
00000080: ba2e febe 5df5 05bd 9d34 993f 576c 95bf
00000090: 0df8 64bf 171c 663f 8a0f f33e 4126 06c0
000000a0: 4588 abbf afd8 173f 0fd0 b8bf 078a 7b3f
000000b0: 12a2 f8be 0a53 c93f 26d0 d93e f4c3 0940
000000c0: a24c a33e b58e a8bb 0736 853f 0e73 803e
000000d0: b678 bfbe 7250 9cbd e273 7ebf c40b 993e
000000e0: 6bff a13f 59ac 14c0 7a50 883f 28b4 103f
000000f0: a81d 1b40 bcbd 55bf 3b9c 9abf cc15 673f
00000100: c778 e9bd e024 1cc0 3d89 1540 d39d 1f40
00000110: 5a3f 26c0 72cb 6b40 7da1 1cc0 02f6 3ac0
00000120: 1255 5bc0 61cf 4f40 9426 293f a0d5 1ac0
00000130: 7d06 043f 5e53 be3f 9a23 903f 615c 5bbf
00000140: 95fc 3a3e
-0.12026887 0.1627746 -0.014802659 -0.514387 1.3322129 0.53249484 -1.0522957 0.669821
1.1095898 0.029675214 0.7939236 -0.5061037 -0.03789771 0.54737806 0.9417907 0.9339263
0.1442348 0.5814452 -1.4575101 -0.56158376 -0.69459075 -1.0215319 0.8495561 -0.06130632
0.44399992 -0.45577717 0.2719052 -1.0940372 1.2414734 -0.032138128 1.0718441 -0.12955615
-0.49645025 -0.0327047 1.1969181 -1.1673688 -0.89440995 0.8988661 0.47472793 -2.0960848
-1.3400961 0.5931501 -1.4438494 0.9825749 -0.4856115 1.5728467 0.42541617 2.152585
0.31894404 -0.005143965 1.0407113 0.2508778 -0.37396783 -0.07632531 -0.99395573 0.2989179
1.2656072 -2.3230193 1.064956 0.56524897 2.423685 -0.83492637 -1.2078928 0.90267634
-0.113999896 -2.4397507 2.3365014 2.4940078 -2.5976167 3.6842923 -2.4473565 -2.9212651
-3.4270673 3.2470324 0.6607449 -2.4192886 0.515724 1.4869192 1.1260865 -0.85687834
0.18260415

hed/mobilenet_v2/block0_1/conv2d/conv2d/Conv2D_bias f4 [6]
00000000: 9240 87bf a84f 8bbd b095 733f 7a9a d7bc
00000010: c6ae 583d 5b2b 403d
-1.056658 -0.068023026 0.9515028 -0.026318777 0.052901052 0.046916347

hed/mobilenet_v2/block0_1/conv2d/conv2d/kernel f4 [6, 3, 3, 3]
00000000: dff2 a73e 9926 313e d130 5cbf 9e24 17bf
00000010: c94f 76be 9ae0 c93c aff0 013e 089b dd3e
00000020: e16c e63e 3667 dc3d 28de 08be 3268 a0be
00000030: 8357 b03e 24e1 cf3e 7ecf 313f 5828 febe
00000040: 3055 cd3e 9096 07bf 812c 743e 9c22 e73c
00000050: e96b edbe 7212 09bf f53e 493f 21ba 2c3f
00000060: e233 033e 52fb 203e a95f 3d3f 0d4a 5e3f
00000070: 4856 57be c871 b7be ae90 c13f 98ae 353f
00000080: 9088 43be 7e1a fb3e 6ad1 86bf 5fd7 33bf
00000090: 8f5a 35bf 2a0a 2ebe 4ba0 693e 6d87 113f
000000a0: 7492 edbe 92dd 813f f18c c8be 44fb 30be
000000b0: 98f4 6abf 766f 99be 4245 383e f54e dabd
000000c0: 195d ffbe b5e0 89bf 3bd8 413f f3fb 923e
000000d0: e296 a93e 2796 a93e 72a3 30bf 5bba b8be
000000e0: 7f3b 88be 8c29 3bbf 617a 21bf 314a d3bd
000000f0: 416a 803e a805 b7be 1917 50bd 8405 09be
00000100: d0b5 81be 2103 763e 569d 6e3e cc1c 75be
00000110: bddf a63d 9520 f03c c4dd 973e f022 12be
00000120: 7df6 38be 5c18 bf3d 0d07 0c3d fdde 3cbf
00000130: eb6a 3e3f 176a 993e 4d8c 3e3f dca9 b03c
00000140: f345 b7be b1c2 483f 23f7 4c3f b76a b53f
00000150: df98 ecbd 0239 773e 2988 a73f dfe1 33bf
00000160: 225c 133d 4d7c b3bd 8cf2 53bf fdbe ccbe
00000170: dfd3 7dbf 6cc0 cebd 0e71 213f 68cb 93be
00000180: a1c3 333f 822a b3be 349e 04be ce32 84bd
00000190: c596 b3bc 06b8 243f 1089 21bf 4e53 343f
000001a0: 719c 2fbf 6ea9 0dbf 61bc cb3d eee4 97bf
000001b0: 4456 65be 722e a8bd 66f4 883e 0182 223e
000001c0: f93f 0a3d 4972 94be b3d7 e73d 6d4a 8bbe
000001d0: 326f da3d 08d3 86bd 48e2 fdbc eda9 a93e
000001e0: b854 623e 7714 aebe 8270 883e 107f 543d
000001f0: dd3f aabc 84f3 32be 91c6 92be 4717 95be
00000200: d532 903e 20e6 efbd 05b2 63be 35bd 013e
00000210: ab4c 9a3d fb95 773c 4ef6 50be feaf c6bf
00000220: 8d33 ddbd a947 c2bf f5f0 113f 7645 923f
00000230: c483 56bf f950 8cbd 811f 303f 39f5 483f
00000240: 5583 d6bf db26 78bf fbb2 573e fafc d23e
00000250: 770a 7ebf 7300 783e ffe7 4f3c d267 3b3f
00000260: a722 203f df70 463f 1fd8 81be dd6c e53d
00000270: 5a36 86bf 0218 edbd c713 483e f59f b73f
00000280: 01d7 903f ed91 e83d
0.32802483 0.1729988 -0.8601199 -0.5904025 -0.24053873 0.024643231 0.1268947 0.43282342
0.45004943 0.107618734 -0.13365996 -0.31329495 0.34441766 0.40601456 0.6945723 -0.49640155
0.40104055 -0.52964115 0.23845102 0.028214745 -0.4637139 -0.5354377 0.7861169 0.6747151
0.1281276 0.15720871 0.7397409 0.8683174 -0.21029007 -0.35828996 1.5122278 0.70969534
-0.19095063 0.4904365 -1.0532658 -0.70250505 -0.70841306 -0.16996065 0.22815053 0.5684727
-0.46400797 1.0145743 -0.3917003 -0.1728335 -0.9177947 -0.2996785 0.1799517 -0.10659591
-0.49875715 -1.07717 0.75720567 0.28707847 0.33122927 0.3312237 -0.689994 -0.36079678
-0.26607892 -0.7311027 -0.6307736 -0.10316885 0.25081065 -0.35746503 -0.050803278 -0.1338101
-0.25334024 0.24024631 0.23302206 -0.23936766 0.081481434 0.029312411 0.2966138 -0.1427114
-0.18062778 0.09330818 0.03418641 -0.73777753 0.74381894 0.29963753 0.7443283 0.02156537
-0.35795555 0.78422076 0.800646 1.4173192 -0.11552595 0.2414284 1.3088428 -0.70266527
0.035976537 -0.08763943 -0.8279197 -0.39989462 -0.99151415 -0.10095295 0.6306313 -0.28866124
0.7022038 -0.34993368 -0.12950975 -0.06455003 -0.021922478 0.643433 -0.63099766 0.7043961
-0.68598086 -0.55336654 0.0994804 -1.1866739 -0.22396189 -0.08211984 0.2674896 0.15869905
0.033752415 -0.28993443 0.11320438 -0.2720522 0.1066574 -0.0658322 -0.030991688 0.33137456
0.2210263 -0.33999988 0.26648337 0.05187899 -0.020782406 -0.17475706 -0.2866712 -0.29119322
0.28163782 -0.11713815 -0.22235878 0.12669833 0.075341545 0.015111442 -0.20406458 -1.5522459
-0.10800848 -1.5178119 0.57008296 1.1427448 -0.8379481 -0.06851382 0.6879807 0.7849918
-1.6758829 -0.9693429 0.2106437 0.4120863 -0.9923472 0.24218921 0.0126895895 0.7320529
0.62552875 0.7751598 -0.253602 0.11202405 -1.0485337 -0.11576845 0.19538794 1.434569
1.1315614 0.11355958

hed/mobilenet_v2/block0_2/conv2d/conv2d/Conv2D_bias f4 [12]
00000000: d022 d3bb f3a9 583f 0249 963d e1b8 cabe
00000010: 3464 09bf dc4c b6be ea27 7a3f 8aea f1bd
00000020: e5f1 1d3f de0b 403d ec1d df3d b4ec 293f
-0.006443359 0.8463432 0.07338144 -0.39594176 -0.5366852 -0.35605514 0.97717154 -0.11812313
0.61697227 0.046886317 0.10894379 0.66376805

hed/mobilenet_v2/block0_2/conv2d/conv2d/kernel f4 [12, 3, 3, 6]
00000000: ad56 7bbd ec95 383d b753 903e 05a1 923e
00000010: 4b56 493e 7094 7e3e 8685 b6be adab e13d
00000020: 77f0 12be 8d8d 8dbe 3797 473d c771 5f3d
00000030: b190 97bd 4b07 cb3d 5d83 593d 12c9 29be
00000040: f0c9 6cbe 96f2 bd3d 9483 e0bd 120f 8b3d
00000050: 22cd 783e ec8c 12be 2a52 a5bc ca0d 3a3e
00000060: d310 96bd 9d5f d83c 98a4 2abd b19d 74be
00000070: 673b d83c ab34 9c3d 33a4 1d3c 8537 48be
00000080: 5bf7 9a3d 8ad5 66be a036 563e 1256 03be
00000090: 0a2c 413d 0b60 da3d 03e7 0b3e 93fd 30be
000000a0: 57ca 48be 7b62 c1bb bdfb e93d 1014 233e
000000b0: f266 3abd 1c66 82be 7410 863d 3243 713c
000000c0: da5e 833d df5e 2ebe ccd1 413e 6d71 0abe
000000d0: 3d81 e33c 3ec4 f5bd ed7c fdbd bbe6 71be
000000e0: 16fc 15be 0499 e2bd a2d2 1c3e 0b10 8fbd
000000f0: fc08 7e3d 564e 90be 9dcb f8bd b3d5 b6bc
00000100: 0864 dbbd beb1 d1bd 033f 073e ac36 49bd
00000110: 0f5b 1bbe 57af 30bd 9be0 24bd 82c0 403e
00000120: c267 c9bd c383 77bd b7e6 d3bd b58a 8bbc
00000130: cb02 c73c 0798 69be ab25 5fbc fc1d 3cbe
00000140: cd27 e23c 013d 93be 7973 0f3e c5c7 28be
00000150: be89 11bd 4061 41bd 06b6 9dbc ec80 36be
00000160: e6ef 333e 22e6 7bbd 4284 4cbe 7f84 32bd
00000170: 09e8 dfbd 05fe a6bd d95a 0e3e 90e0 14be
00000180: 2443 66bd 1f8c 03be 1dec 9cbd fd4e 8ebe
00000190: b511 0a3e e817 4bbd b2ff 1c3d 71af 53bc
000001a0: 823d 823d 4f96 bb3d a81a 703d ec89 c13d
000001b0: d37b 193e f2cb 6dbe 1b42 d63d b9e8 b3bb
000001c0: 335e 84bc 2661 e6bc 2988 123e 7962 cbbd
000001d0: 889d bf3d b6c4 3dbd 2efd 4ebd 089e 28be
000001e0: 9d9b 07be 01c7 adbd d742 923e 2440 923d
000001f0: 3d33 07bd 56cb 573e 3f2f 343e 543b a5be
00000200: b711 ffbc c6b4 743e f2ca 5ebe d87b b0bc
00000210: ea40 79bc 2289 8abe 5d2b 113e d684 0bbe
00000220: 9b04 77be b6ae 01bd b55e 36be 6128 35be
00000230: fd8a 64be d890 d73d 123e 643e abc6 573c
00000240: adb1 9a3e ea01 fcbd 7b13 f4bd b0f2 263e
00000250: 9552 5a3e 6963 22bd 3748 7f3e 43b0 5abe
00000260: e93a babd 374e 27be 288d 85bd 5f51 ec3d
00000270: 731b aa3d 7c56 86bd 6a21 23be 5c3f 02be
00000280: 04f0 853e 3e29 20bc bcb5 393e 34e3 1fbe
00000290: 7c3f 743e 607b 8e3e 89b7 013e 94d0 993e
000002a0: e3e1 b63c d45f 0d3e 39ff 4ebe 45bb e13d
000002b0: aea8 dd3c 8de7 2ebc 111a 223c 30fe 5fbe
000002c0: a5c8 a33d b121 033b c756 ba3d 38a0 3ebe
000002d0: 0e21 863d d8e9 e83d 7531 23be 94c6 d03e
000002e0: d11b 44be 5cf5 a13e 6f05 9e3e 7405 2b3d
000002f0: 3ee8 42bd 8f55 173d 989d 493e 632b d53c
00000300: 4480 7bbe eaf6 67be 62b8 6cbe db52 813e
00000310: c8b8 1cbd 10eb 123d 453a 0b3d fa02 5fbe
00000320: d73e 4fbe 64a3 a93d 87dd 293e d53c 793e
00000330: aedf 25be b4a3 e53d 31ac 6bbe 2460 89bd
00000340: 37d6 c5bd 5fc2 88bd 16bc 673e ad42 22bd
00000350: 7da3 8c3d 0807 9d3e 77a8 33bc 7a59 a23b
00000360: 1fbf b9be 36c8 e33c e7b4 50be 2442 6a3e
00000370: fdd5 17bd 324d ccbd 06b4 2ebe 3141 2f3e
00000380: cf0e a8be f8a1 533e 7fc6 623e 27db b83c
00000390: 6856 493e 5e3e f23d 583c 303e f337 a2bd
000003a0: b4f0 833e 0c37 c2ba 8027 3a3c 1a00 aa3c
000003b0: dc1c 94be 636e fc3d ef07 af3e d2e6 b7bb
000003c0: 3592 84bc 82d0 06bd 2fef 3dbd 4725 7abd
000003d0: 9425 c1bd a0d2 63bd 542c 203e 05f5 913e
000003e0: 171b 2a3e 3d6e bc3e 080d 7ebe 6c10 b03e
000003f0: e685 8d3e 60e1 b1be 83f2 1bbe 17b7 1f3e
-0.061361957 0.04506485 0.2818887 0.28638473 0.19661824 0.24861312 -0.35648745 0.11019073
-0.14349543 -0.27647057 0.048728194 0.054551866 -0.074006446 0.099135004 0.053103793 -0.16580608
-0.23123908 0.09274785 -0.109625965 0.06789984 0.24297002 -0.1431157 -0.02018078 0.18169323
-0.07327428 0.02641278 -0.041660875 -0.2388828 0.026395513 0.07627233 0.009621668 -0.19552429
0.075667106 -0.22542396 0.20919275 -0.12825802 0.04716114 0.1066285 0.13662343 -0.17284231
-0.19608437 -0.0059016324 0.114249684 0.15925622 -0.045508333 -0.25468528 0.06546107 0.014725493
0.06414576 -0.17028378 0.18927687 -0.13519831 0.027771587 -0.12000321 -0.12377343 -0.23623173
-0.14646944 -0.11064342 0.15314725 -0.06985482 0.062020287 -0.28184766 -0.12148211 -0.022318697
-0.10712439 -0.1023898 0.13207631 -0.049124405 -0.15171455 -0.043135967 -0.040253263 0.18823436
-0.09834243 -0.060428392 -0.1034674 -0.017033914 0.024293324 -0.228119 -0.013619821 -0.18370813
0.02760687 -0.2875748 0.14008893 -0.16482456 -0.03553175 -0.047211885 -0.019251835 -0.17822617
0.17571983 -0.06149877 -0.19972327 -0.04358339 -0.10932929 -0.08153919 0.13901843 -0.14538789
-0.056216374 -0.1284642 -0.076622225 -0.27794638 0.13483317 -0.049583346 0.038329788 -0.012920246
0.06359388 0.091595285 0.05861917 0.09450135 0.14988641 -0.2322233 0.10461827 -0.005490389
-0.016158199 -0.028122496 0.14309753 -0.099308915 0.093562186 -0.046330176 -0.05053442 -0.16466534
-0.13242956 -0.084852226 0.2856662 0.0714114 -0.03300785 0.2107366 0.17596148 -0.32271826
-0.031136377 0.23897085 -0.21757105 -0.021543428 -0.015213231 -0.2705775 0.14176698 -0.13624892
-0.2412285 -0.031660758 -0.17809565 -0.17691185 -0.22318645 0.10525674 0.22289303 0.013169925
0.3021368 -0.123050526 -0.11917778 0.16303515 0.21320565 -0.039645586 0.24929892 -0.21356301
-0.090932675 -0.1633843 -0.06521064 0.11538958 0.08306017 -0.06559464 -0.15930715 -0.12719482
0.2615968 -0.009775458 0.18135732 -0.15614015 0.23852342 0.27828503 0.1266767 0.30041945
0.022324508 0.13806087 -0.20214547 0.11022047 0.027057972 -0.010675323 0.00989391 -0.21874309
0.07997254 0.0020009095 0.09098583 -0.18615806 0.065492734 0.11372727 -0.15936835 0.40776503
-0.19151236 0.31632507 0.3086352 0.041753247 -0.047584765 0.03694683 0.19689023 0.026021665
-0.24560648 -0.22652784 -0.23117211 0.25258526 -0.03826216 0.035868704 0.033991117 -0.21778479
-0.20238815 0.082831174 0.16588412 0.24339612 -0.16198608 0.112128645 -0.23014905 -0.067077905
-0.09659999 -0.06677698 0.22630343 -0.03961437 0.068671204 0.30669427 -0.010965458 0.004954514
-0.36278626 0.027805429 -0.20381509 0.22876793 -0.03706931 -0.09975661 -0.17060861 0.17114712
-0.32823798 0.20667255 0.22146033 0.022565437 0.19661868 0.11828302 0.1721052 -0.07920828
0.2576958 -0.0014817431 0.011361957 0.020752002 -0.28928268 0.12325742 0.3418574 -0.0056122327
-0.016182998 -0.032913692 -0.04637068 -0.061070707 -0.094309956 -0.05562079 0.1564191 0.28507248
0.16611896 0.36802855 -0.24809659 0.3438753 0.2764122 -0.3474226 -0.1522923 0.15597187

hed/mobilenet_v2/block1_0/1x1_conv2d/conv2d/Conv2D_bias f4 [6]
00000000: 42ee 91be 6082 b7bc 1c52 af3f f9c1 1c3f
00000010: de35 a8bd ee25 a73e
-0.2850209 -0.022401035 1.3696933 0.6123348 -0.08213399 0.32646126

hed/mobilenet_v2/block1_0/1x1_conv2d/conv2d/kernel f4 [6, 1, 1, 12]
00000000: cbc5 123e d879 3b3f fd29 aabe eda0 37bd
00000010: c2b0 cfbe 38cb db3e 680f e33e bc42 e8be
00000020: e0de 083f ed3f 133f 3ac5 edbe c205 6d3e
00000030: 4490 623f 33cb 7bbf a7cc 0f3f bf87 823e
00000040: c6c8 b7bd fce9 353d 80d5 47bf 18e0 f0be
00000050: f392 6dbf df80 0c3e 3150 613e bcc7 643f
00000060: 13b8 6abf c2b0 e2bd c38b 9a3e 0c45 eebe
00000070: c74f e13e 15ab 1abf ee7e cfbc 29eb 39bf
00000080: 92a2 42bf 0d81 f43e 8640 55bf c8f8 7f3e
00000090: 3b2c 42bf c936 47bf 0510 383f 06bf 913d
000000a0: d91b 68bf 4a16 393f 0f80 84bf 4b40 06be
000000b0: a6c4 c4bd 1fbe eb3e ae83 f73e 2dc8 3ebe
000000c0: 5b4b 5e3b 28f1 613e 4590 213f 1404 c1be
000000d0: 7321 21bf d524 d6be 8635 383e eada 75be
000000e0: 60ca 36bb c2eb 023f 5664 d2be 1027 c93d
000000f0: 06db 053d 39fc 043e 27b9 28bf 8dae cb3e
00000100: e0a3 cbbe 3ea1 133f 4d39 5dbf 7d12 b93e
00000110: fd67 28bf 536a 23bd 9b82 bc3e 9a2f df3e
0.14333265 0.73232794 -0.3323516 -0.044831205 -0.40564543 0.4292848 0.44347692 -0.45363414
0.5346508 0.5751942 -0.46439534 0.23146728 0.8850138 -0.9835693 0.5617165 0.2549419
-0.08973841 0.044412598 -0.7806015 -0.4704597 -0.9280235 0.13721035 0.22003247 0.8936727
-0.91687125 -0.1106887 0.30184755 -0.46537054 0.44006178 -0.604173 -0.02532908 -0.7262445
-0.7602931 0.47754708 -0.8330158 0.24997246 -0.7584874 -0.7781797 0.71899444 0.07116513
-0.9066749 0.72299635 -1.035158 -0.13110463 -0.0960782 0.46043488 0.4834265 -0.18631049
0.0033919427 0.2206465 0.6311076 -0.37698424 -0.62941664 -0.41824976 0.17989168 -0.2400929
-0.002789162 0.5114099 -0.41092175 0.09821904 0.03267958 0.1298684 -0.6590752 0.3978161
-0.39773464 0.5766791 -0.8641556 0.36146918 -0.65783674 -0.03989632 0.36818394 0.43591005

hed/mobilenet_v2/block1_0/depthwise_conv2d/SeparableConv2d/depthwise_bias f4 [12]
00000000: 7835 f03e b707 63bf 7820 143d b8f6 8ebe
00000010: 515d 40bf 5271 9a3e 3b1e 83bf 8079 953e
00000020: 7ba7 143f 2ed9 dcbe c779 f83e 0e80 14be
0.46915793 -0.88683647 0.036163777 -0.27922606 -0.7514239 0.30164582 -1.0243601 0.2919426
0.58068055 -0.43134445 0.4853041 -0.14501974

hed/mobilenet_v2/block1_0/depthwise_conv2d/SeparableConv2d/depthwise_weights f4 [1, 3, 3, 12]
00000000: 22d8 b5bf 31b1 513e cfc2 503e 11ac 013e
00000010: c758 973f 4fca d9bd 200c 813e 9704 923e
00000020: 59c9 6fbd 3e03 f33e 7f76 efbe 2f4a ef3e
00000030: 5e35 1ac0 d997 4f3f ea41 df3e 8068 4bbe
00000040: 4a13 ed3e c6e9 013f efb1 cbbe 1138 783e
00000050: b0f9 c23d 1d95 2abe 6221 423e 07d6 f43e
00000060: 1bc8 9f3d d0ec 803e d659 bcbd 7cb2 99be
00000070: 8cb6 cabf 48bd 12bf c70d 793e daa7 90bf
00000080: 285e 96be 737d a53c dac8 16bf 1db3 c93e
00000090: eafa 013f ec58 143f d213 f2be 390f a43f
000000a0: 14af dd3f 942d ea3e e969 36be 36cb a33f
000000b0: d294 b0bd 350d 2b3f 3123 59be f0cc eabe
000000c0: 9b1d f2bf ae2b fbbd 7e9c c13e fcda 513f
000000d0: 20da d13e e72e 023f aa8b 0040 a862 afbf
000000e0: 7e6d 4bbf c3fe ba3e 2e6a 3b3f 1ba3 ec3b
000000f0: e599 c23f 3a1e ec3e 5f8a 123f 77b5 093e
00000100: a3d4 573f 0c5a c43e 21bd 133f f90c 11bf
00000110: 4a89 2fbf 37dd 05be 2531 1dbe 3c6f 27bd
00000120: ab65 893e b80e e7bd 0212 4bbf 8614 d4be
00000130: f08b 473f 7d0d 55be d23e 4cbf e91c 863f
00000140: c3b5 1abf 01fc 7dbd 72b0 27be 613f dbbe
00000150: 7c6b 2a3f c401 b53e c0e9 363e 6d7d 20bf
00000160: ac55 46be e78b 24bd 7bce 213f f6fe 983d
00000170: 3be3 8a3e 192a 9abe b4d2 1ebf ca48 8b3e
00000180: fefb 0d40 6b8f dfbd 3ff9 05be b906 903d
00000190: 908e cfbf f4db 34bf 4f93 473f fd3b 4bbf
000001a0: 9a92 7a3d 31b0 303e 9a76 f6be 82a8 4dbd
-1.4206583 0.2047775 0.20386814 0.12663294 1.1823968 -0.106342904 0.25204563 0.28519127
-0.05854163 0.4746341 -0.46770093 0.46736285 -2.4095073 0.81091076 0.43604976 -0.19864082
0.4630378 0.50747335 -0.3978419 0.24240138 0.0952028 -0.16658445 0.18958047 0.4781954
0.07801839 0.25180674 -0.09196822 -0.30018985 -1.5836959 -0.5732007 0.24321662 -1.1301224
-0.2936871 0.02020142 -0.58900225 0.39394465 0.5077349 0.57948184 -0.47280747 1.2817146
1.7319055 0.45737898 -0.17813839 1.279639 -0.08622135 0.6681703 -0.2120483 -0.4585948
-1.8915285 -0.122641906 0.37814707 0.8197477 0.4098673 0.5085282 2.0085244 -1.3701982
-0.79463947 0.36522493 0.7320889 0.007221592 1.5203215 0.4611681 0.5724239 0.1344813
0.8430883 0.3834995 0.5771046 -0.5666042 -0.6856886 -0.13072668 -0.15350778 -0.040877566
0.2683538 -0.11282104 -0.7932435 -0.41421908 0.779479 -0.20805927 -0.79783356 1.0477573
-0.60433596 -0.062007908 -0.16375902 -0.42821792 0.6657026 0.3535291 0.17862606 -0.62691385
-0.19368619 -0.040172484 0.6320569 0.07470505 0.27126488 -0.30110243 -0.6204026 0.2720397
2.2185054 -0.10916027 -0.13083361 0.07032532 -1.6215382 -0.7064812 0.7795915 -0.7938841
0.061174966 0.17254712 -0.4813736 -0.05020953

hed/mobilenet_v2/block1_0/expansion_1x1_conv2d/conv2d/Conv2D_bias f4 [12]
00000000: a296 c63d eb93 ca3e 1284 983e 800e b13d
00000010: e071 62bc 396e 773f 56dc adbe a6fe 923f
00000020: e903 0b3f fa1e 183f 79ac e03e e8c5 303f
0.096967 0.39565977 0.29788262 0.08645344 -0.013821095 0.9665256 -0.33957165 1.1483963
0.5430284 0.59422266 0.43881586 0.6905198

hed/mobilenet_v2/block1_0/expansion_1x1_conv2d/conv2d/kernel f4 [12, 1, 1, 12]
00000000: 1445 863e 4f15 943e 6563 dd3c cc88 7fbe
00000010: 8df4 29bd 104a 0abf 8ac9 5b3e 0662 92be
00000020: 7e7b 883e 2c21 a0be ebd9 de3d 2f77 8f3e
00000030: 6328 4ebf 8d4f 94be 5a5c e9be ea16 1bbf
00000040: 0b24 e23e 774b f4be a598 4e3f 8e0d 073f
00000050: c07a 07be a4ae 7d3f 3b1e 7bbf d9e5 32bf
00000060: 5b1b 0b3e a3f6 16bf 34e6 63bf 0e2a 0bbd
00000070: 7cfd cbbd f950 173f abbc 12be 6aaf da3e
00000080: b7ea 553e b457 293f cbe1 b0be c9a9 dbbe
00000090: f02a 9abd bed5 efbe caa4 873e 2540 dc3e
000000a0: db19 5fbe 05c8 99be adcc 8e3e 9a67 b93e
000000b0: 3a8c 0a3e 7219 5fbf 502d fe3e 695a 773e
000000c0: efd7 853e 8908 9b3e 88be 5a3d 0ffc 9cbe
000000d0: 7c44 41bb 3b48 06bf 2f68 1e3f 924d f7be
000000e0: 9f88 3abe 9597 fe3d 3362 cf3e f7a3 ac3d
000000f0: a1f5 45bf a82b a1bf 36ac 9abb 7072 283f
00000100: ac13 13bf 8634 873f a270 5fbf bc0e 4e3f
00000110: e672 de3b bc56 06bf 1212 863f 7634 2bbf
00000120: 4b5d 933e ef3f a13e e807 b3be 0a93 573e
00000130: b50a f8be 349f ecbe aaff 0f3f 5865 80be
00000140: a998 bb3e 8980 9abe ec2b bd3e 79be 8d3e
00000150: f07f 1b3c 7870 fdbe eabd 4dbe bf08 dcbe
00000160: 3aba 1abf ddea 0e3e 3e87 50bf 8f1c 623e
00000170: a739 843e c025 52bf de2b f6be 6c74 863e
00000180: 5add 8cbe ec47 613e 12b3 c13d f262 833e
00000190: 6277 113e 74e8 10bf 8a40 06bf b274 cd3e
000001a0: c7c1 27bf 84ed 09bf e7f7 6ebe dbef 273d
000001b0: 6a98 2f3d 93c0 06bf caea 173e ffd6 1b3f
000001c0: 0e79 543f 6a42 61bf 8d96 6dbf a398 90be
000001d0: 28e7 2dbf 5a80 403e b164 54bf 909c 8f3f
000001e0: e120 17bf 4089 d23e 599e 10bf d7ba 13bf
000001f0: 8a6a c43e 4a78 f93e 8729 0abf aad0 ad3e
00000200: 8a09 dabe e16e 553e dac8 c5bd 6bf0 11bf
00000210: c254 92bf 3b5e a3bd 7755 e1be b42c 1a3e
00000220: 16aa b83e cdda 2cbc 179f dbbf 0545 9d3c
00000230: 19da 423e 4f40 8dbe ee3f 0a3f 1e91 ce3f
0.26224577 0.28922507 0.027024934 -0.24954528 -0.041492987 -0.5401926 0.214636 -0.2859041
0.26656717 -0.31275308 0.10881408 0.28020617 -0.80530375 -0.28966942 -0.4557827 -0.6058184
0.44168124 -0.47713825 0.8070167 0.5275506 -0.13230419 0.99094605 -0.98093003 -0.6988197
0.13584654 -0.5897009 -0.8902314 -0.033975653 -0.09960458 0.5910793 -0.14329784 0.42711955
0.20890318 0.6614945 -0.34547266 -0.42902973 -0.07527721 -0.4684276 0.26492912 0.43017688
-0.21787207 -0.30035415 0.2789053 0.36211854 0.13530055 -0.871482 0.49643946 0.24155582
0.26141307 0.3027995 0.05340436 -0.30661055 -0.0029490283 -0.52453965 0.6187772 -0.4830137
-0.1821618 0.12431256 0.40504608 0.08429711 -0.77327925 -1.2591448 -0.004720236 0.6579962
-0.5745189 1.0562904 -0.8728124 0.8049123 0.0067885993 -0.52476096 1.0474265 -0.66876924
0.28782114 0.3149409 -0.3496697 0.21052185 -0.4844567 -0.46215212 0.5624949 -0.2507732
0.36639908 -0.3017619 0.36947572 0.27684382 0.009490952 -0.4949987 -0.20091978 -0.42975423
-0.6044041 0.1395678 -0.81456363 0.22081207 0.25825235 -0.8208885 -0.48080343 0.26260698
-0.27512628 0.22000092 0.09457983 0.25661427 0.14205697 -0.56604695 -0.5244223 0.40128094
-0.65530056 -0.53878045 -0.23336755 0.04100023 0.042869963 -0.52637595 0.14835659 0.60874933
0.82997215 -0.87991965 -0.9280785 -0.28241453 -0.6793084 0.18798962 -0.8296614 1.1219654
-0.59034544 0.41120338 -0.5649162 -0.5770697 0.38362533 0.48724586 -0.53969616 0.3394826
-0.42585403 0.20843078 -0.0965745 -0.57007474 -1.1432116 -0.079769574 -0.44010517 0.15056115
0.36067265 -0.010550213 -1.7157925 0.01919795 0.1902851 -0.27588126 0.540038 1.6138036

hed/mobilenet_v2/block1_0/projection_1x1_conv2d/conv2d/Conv2D_bias f4 [6]
00000000: 9d4e aa3e dc74 b4be 8ad2 213f 262a 1fbe
00000010: 46d0 fbbe 7793 86bf
0.33263102 -0.35245407 0.6321188 -0.15543422 -0.49182338 -1.0513753

hed/mobilenet_v2/block1_0/projection_1x1_conv2d/conv2d/kernel f4 [6, 1, 1, 12]
00000000: 9577 8fbe ee8f f0be 7a2e 193e d488 1ebf
00000010: 8f7b 3e3f 1c72 f4be 8b1e a03e 5973 47be
00000020: b783 cbbe c26b b03e 5faf 1f3e 7bcc 4f3f
00000030: c144 943e 3534 e6be 51dc 483e fe3c b7be
00000040: 2c01 43be 744c ba3e 40df 30bf 62ef 2c3f
00000050: 1765 e83d 0624 143e 2b84 683d a425 1bbf
00000060: 031b 53bf d158 173e 0544 30bd 68ba 5a3f
00000070: e14c 3c3f be92 00bf ec3f 8abe ab3b 58be
00000080: 5af4 23bf 5db4 f4be 6004 9b3f 58ca 8a3e
00000090: 9009 a13e bf40 a5be eecd 7f3e 28bf 18ba
000000a0: 9de1 edbe 5879 4b3d 97e4 12bf fe22 efbe
000000b0: b3e2 5b3e e16e be3d 381d 953e ee81 c33e
000000c0: 5b6a fe3e 515a 0bbf 8e5a dbbe 4936 3a3f
000000d0: abe0 223e 5ebc 7d3e f4cc b93e 9ab8 a73e
000000e0: ba82 00bf ea32 683d 0951 543e acc0 0cbf
000000f0: bf2b 7f3e df42 1b3d 7c36 273f b287 953e
00000100: 2f58 443f 1687 833e dbbd 1c3f b4be c83d
00000110: b884 043f cb65 9fbe 9269 4dbe 4a31 953d
-0.2802092 -0.4698481 0.14959136 -0.61927533 0.74407285 -0.4774331 0.31273302 -0.19477595
-0.39748928 0.34457213 0.15594243 0.8117139 0.28958705 -0.44961706 0.19615294 -0.3578872
-0.19043416 0.36386454 -0.6909065 0.6755277 0.11347406 0.14466867 0.05676667 -0.6060431
-0.8246309 0.14779975 -0.04303362 0.85440683 0.7355481 -0.5022391 -0.27001894 -0.21116512
-0.64044726 -0.47793856 1.211071 0.271075 0.31452608 -0.3227596 0.249809 -0.00058268243
-0.46461192 0.04967627 -0.5738005 -0.46706384 0.21473198 0.09298492 0.29123855 0.38185066
0.49690518 -0.54434687 -0.42842525 0.7273908 0.15906017 0.24778888 0.3628918 0.32758027
-0.5019947 0.05668918 0.20734037 -0.54981494 0.24919032 0.03790557 0.6531751 0.2920509
0.7669706 0.25689 0.61227196 0.09801999 0.5176501 -0.3113235 -0.20059803 0.07284792

hed/mobilenet_v2/block2_0/depthwise_conv2d/SeparableConv2d/depthwise_bias f4 [36]
00000000: 0612 513f 3858 07bf 1ee5 363e 8026 3a3c
00000010: 2aa6 b3be 34ec 2a3f 5789 16bf 7807 f5bb
00000020: 8298 5a3f ccae 41be 6c9f 9b3f a239 593e
00000030: 6821 353f f6d6 4bbf 04ad 033f ee08 87bf
00000040: 8cd8 c63d 704c 29bf 377f 113e a46a 28bf
00000050: b198 da3d 8e78 b6bd d4ea 673f d1d2 87bd
00000060: e9cc 4ebe 43be 233f 424f 09bf 782f 083d
00000070: 28e8 b63d 3452 23bf 00e1 2c3c f2e8 2abe
00000080: c11a 7b3f d333 2abf b183 48bf 8b8f 4fbf
0.81668127 -0.52868986 0.17860839 0.011361718 -0.3508771 0.6676667 -0.58803314 -0.007477697
0.8538896 -0.18914336 1.2158027 0.21213391 0.707541 -0.7962488 0.51435876 -1.05496
0.09709272 -0.6613226 0.14208685 -0.6578772 0.10673655 -0.08909713 0.90592694 -0.06632007
-0.20195355 0.6396219 -0.5363656 0.033248395 0.08930999 -0.63797307 0.010551691 -0.16690424
0.980877 -0.6648533 -0.78325945 -0.81078404

hed/mobilenet_v2/block2_0/depthwise_conv2d/SeparableConv2d/depthwise_weights f4 [1, 3, 3, 36]
00000000: 8c93 76be 2dff 653f b102 653e b8ec f7bf
00000010: 55fd 9ebe 116e 753e 67dd 1ebc 21e3 763d
00000020: d31e 25be 3d8a debe a832 d0be 06c3 a43e
00000030: 35d0 c1be 30de 0e3f c42e 8c3e 8f5d b43e
00000040: 7831 08bf e3e5 22be 4c40 88be 54a0 793d
00000050: 8365 f2be 3a10 0c3f 9f39 b0bd 1b0e ab3e
00000060: e729 3d3f 3414 233d a9a8 d6b8 531c 77bf
00000070: 1d6a 10be 21fb 0b3e 8124 f13c b155 973f
00000080: 486d 5ebe 524e ad3e d255 c83e 418b 9e3e
00000090: a39d b53d e40b 5e3e c8b9 ffbe 4256 763e
000000a0: 1284 02bf a407 6cbf fdc8 073f eb47 4abe
000000b0: 315d a8bd 8321 f8be e4f6 80be 0d07 56bb
000000c0: 837d 46be 577c c83e 7f8b c33e 8265 10be
000000d0: 5382 77bf 1d8a 113f 56b9 75be 1f18 873e
000000e0: 98d2 cfbe 0d1b 443f 1625 733d 6b6f 9fbf
000000f0: 79a0 cf3e db98 8bbe c77b 073f 48db 79bf
00000100: 24e0 6a3e 2337 63be 2ec5 66bf d624 a83f
00000110: 2a23 63bf 2446 113c a01f 083f f1d3 f03e
00000120: 6479 3ebe 533e 0b3e d28b bd3e 0551 c23e
00000130: 1137 13bf ef37 153e 9ace 5b3e 8f37 62bf
00000140: d6d5 87be cdba 203e 16be 28be 72ba 58bf
00000150: fb36 a4be 3ca4 e03e 9f25 01bf 4f90 f23e
00000160: d170 a3bd d71e ad3e 46d8 39bf 4c23 2f3e
00000170: 3374 093f acb2 0e3f 7f52 1bbd f47f 15bf
00000180: 9ae8 1cbe 3a9f 8abe 6082 e0bb 280d 28bc
00000190: 0dc9 d13d 0444 3fbe 3566 173f f7df c1be
000001a0: 4e6b 29bf bd7e 1c3e cdf4 b43d 3387 0e3f
000001b0: a217 03bf a11a 483f b4d2 583e 2f8d fbbf
000001c0: f251 933f 55f3 023f a85c 5b3e 1043 ea3e
000001d0: c46f cabe bed2 11bd 8348 c5be 2b60 1a3f
000001e0: ace9 d8be 2c60 883e e34d 4fbe 26e9 313f
000001f0: afc9 7b3f 9695 1b3e a7c6 903e ec83 b83e
00000200: 63be 36bf 4be7 24bf efe4 90be 4f27 103f
00000210: 90c1 213f 8a86 0cbf 4390 373d 172d c23e
00000220: 6269 eabe 792d 843d 69fb 5dbe 62c3 cc3e
00000230: 0a4b 60be cab8 8a3e cb8d 813e 58b4 b8bd
00000240: 772b 55bf 00b3 2ebe 3e16 84bf 2287 203f
00000250: a30f 5b3f c9a0 c7bf 4d95 0b3f 953e 743e
00000260: 2531 97be 30e5 32bf 55c8 33bf bdcd 59be
00000270: 9c2b f3be d322 2d3f 9246 08bd 40dc 483f
00000280: 5ba9 6f3f 52f3 843e 14e2 d4bd dd06 df3e
00000290: 52c3 083e 514f 71bf 730a 8cbf e0e5 9bbf
000002a0: 7009 8c3f d8d8 26bf 8a79 f03e f174 2b3e
000002b0: dc62 91bf 0080 f6bc 6372 14bf 7d18 753e
000002c0: 6a21 5ebc ca5f e33e 7753 533f bb8d 1e3f
000002d0: 4c59 88bc 661a 24bf e5a0 523f 2bfe 9d3f
000002e0: 53da 31bf 1bb4 49be 25d3 a23e d964 9ebe
000002f0: 9949 16be cc1a 36bf 7589 2ebf 3993 1dbf
00000300: efd8 5abe 43ae 0b3e 0937 5abf 4e37 57be
00000310: fb16 f13e bdf6 d83e d51a d9be 0827 50be
00000320: 1dc1 d53e 16ed 3bbf efba 46bf 8135 4f3f
00000330: fa8a 0c3f 7262 98be 45b5 863e 6b91 a73d
00000340: d919 31bf e4c3 3abe 919f 3c3f f9f0 8d3e
00000350: bffa efbe c9fa 9e3e c41e aabd 374f 603d
00000360: d129 97be 599d 8f3e 37fb 44bd f728 eb3e
00000370: 9af5 1a3f 25b3 7e3f e080 0a3e cccd 54be
00000380: acec 6fbe 5941 683f 75cd dcbe 58b2 8d3e
00000390: edcd 96be cad2 be3d 7ac8 cbbd f2ce f5b9
000003a0: 5937 1cbf fd11 38be 5da7 553e b0fe 313f
000003b0: 6784 48bd a0ac 02bd cd18 623d 7193 c03f
000003c0: 817d b0bf c985 173e 30f4 783e cd24 843e
000003d0: 2e96 2e3f ba75 1b3f 9c5c 193e 4b57 93bf
000003e0: 7abb d83c 4a5e 033e 7819 b3bc 9d31 863d
000003f0: 73d9 87bd 6f36 81bc 425e 89bf 0d70 a23e
-0.24079722 0.8984249 0.22364308 -1.9369116 -0.31052652 0.23967768 -0.009696341 0.0602752
-0.1612504 -0.43464842 -0.40663648 0.3218004 -0.37854162 0.5580778 0.2737943 0.3522763
-0.53200483 -0.15908007 -0.26611555 0.060943916 -0.47343072 0.5471226 -0.0860474 0.334092
0.7389206 0.03981419 -0.000102357306 -0.96527594 -0.14102979 0.13670017 0.029436352 1.1823026
-0.21721375 0.33848816 0.39127976 0.30965617 0.088679574 0.21684223 -0.49946427 0.24056342
-0.50982773 -0.9219916 0.5304106 -0.19753997 -0.082209 -0.48463067 -0.25188363 -0.0032658011
-0.19383816 0.39157364 0.38192365 -0.14101222 -0.96683234 0.5685137 -0.23996481 0.2638559
-0.40590358 0.76603776 0.05936154 -1.2455877 0.40552118 -0.27265057 0.52923244 -0.9760022
0.22937065 -0.22189002 -0.9014462 1.3136241 -0.8872553 0.0088668205 0.53173256 0.47036698
-0.18600994 0.13597994 0.37020737 0.37952438 -0.575059 0.14572118 0.21465531 -0.88366026
-0.2653033 0.15696259 -0.16478762 -0.8465949 -0.32073197 0.438753 -0.5044803 0.47375724
-0.079805024 0.3381259 -0.7259563 0.17103308 0.5369293 0.5574138 -0.03792047 -0.58398366
-0.15323105 -0.27074605 -0.0068514794 -0.010257043 0.102434255 -0.1867829 0.5914033 -0.37866184
-0.6617936 0.15282722 0.088357545 0.5567505 -0.51207936 0.7816563 0.21174127 -1.9652461
1.1509383 0.51152545 0.21422064 0.4575429 -0.39538395 -0.03560137 -0.38531885 0.6030299
-0.42365777 0.26635873 -0.20244555 0.6949638 0.9835462 0.15193781 0.2827656 0.36038148
-0.7138426 -0.64415425 -0.28299662 0.5630998 0.6318598 -0.5489279 0.044815313 0.37925026
-0.45783526 0.06453986 -0.21677937 0.39992815 -0.21903625 0.27094108 0.25303492 -0.09018773
-0.8326945 -0.1706047 -1.0319288 0.62706196 0.85570735 -1.5595943 0.5452469 0.23851998
-0.29529682 -0.6988096 -0.7022756 -0.21269889 -0.4749421 0.6763126 -0.033270426 0.78461075
0.9361779 0.2596689 -0.103946835 0.43559924 0.13355759 -0.9426165 -1.0940689 -1.2179527
1.094038 -0.6517463 0.46967727 0.16743828 -1.1358294 -0.030090332 -0.5798704 0.23935123
-0.013557771 0.4440902 0.8254923 0.61935014 -0.016644143 -0.6410278 0.82276756 1.2343191
-0.6947376 -0.19697611 0.31801715 -0.30936316 -0.14676513 -0.7113464 -0.6817849 -0.6155277
-0.21371816 0.13640694 -0.85240227 -0.21017191 0.47087845 0.42375746 -0.42403284 -0.20327389
0.41748896 -0.7340864 -0.7762899 0.80941015 0.5489956 -0.29762608 0.26310173 0.08182033
-0.69180065 -0.18238789 0.7368098 0.2772291 -0.46870992 0.3105071 -0.08306649 0.054763045
-0.2952409 0.28049734 -0.04809114 0.4592969 0.6053101 0.994921 0.13525724 -0.2078163
-0.23430127 0.9072471 -0.431255 0.27675128 -0.29453984 0.093175486 -0.09950347 -0.00046884228
-0.61021954 -0.17975612 0.20864625 0.6952925 -0.048954394 -0.03190291 0.055199433 1.5044996
-1.3788301 0.14797129 0.243119 0.25809327 0.68197906 0.6072651 0.14976734 -1.1511015
0.026456583 0.12828937 -0.02186273 0.06552432 -0.06633272 -0.015773026 -1.073189 0.31726113

hed/mobilenet_v2/block2_0/expansion_1x1_conv2d/conv2d/Conv2D_bias f4 [36]
00000000: 46a6 393e 3dd1 4b3f 4c11 903e f087 f6be
00000010: eb6c 17bf 0072 f9be 34bd a33e 83f0 6a3e
00000020: 0fcc eb3e 327d 47be 417c 593d 4c10 a33e
00000030: 86e0 a2be 1ddd 373f 4c98 a23e 3497 7ebe
00000040: d3d3 0b3f b18f 373f c9fc 493e fa20 dd3e
00000050: 6f27 15be 7e0a bf3e 3f89 40bf 58b8 e9bc
00000060: 3b56 063e c10a 95bd b5ab c13e 4f67 45bf
00000070: fb92 1e3f 18ba 2d3f f574 373f 3833 06bf
00000080: cd34 013e eb4f c03e 61fa 3f3f 9c48 38bf
0.18129835 0.7961615 0.28138196 -0.48150587 -0.5915057 -0.48719788 0.31980288 0.2294331
0.46054122 -0.19481352 0.053097013 0.3184837 -0.31811923 0.7182177 0.31756818 -0.24862367
0.54620093 0.7170363 0.19725336 0.43189222 -0.14565824 0.37312692 -0.7520942 -0.028530285
0.13118832 -0.07277442 0.37826315 -0.7711076 0.61943024 0.6786208 0.7166284 -0.52421904
0.12617798 0.37560973 0.7499142 -0.71985793
